original vocab 41574; pruned to 11004
Number of sentences dropped from ./data/classifier/train.txt: 448221 out of 549367 total
original vocab 41574; pruned to 11004
Number of sentences dropped from ./data/classifier/test.txt: 8288 out of 9824 total
Baseline_Embeddings(
  (embedding_prem): Embedding(11004, 100)
  (embedding_hypo): Embedding(11004, 100)
  (linear): Linear(in_features=200, out_features=3, bias=True)
)
Seq2SeqCAE(
  (embedding): Embedding(11004, 300)
  (embedding_decoder): Embedding(11004, 300)
  (encoder): Sequential(
    (layer-1): Conv1d(300, 500, kernel_size=(3,), stride=(1,))
    (bn-1): BatchNorm1d(500, eps=1e-05, momentum=0.1, affine=True, track_running_stats=True)
    (activation-1): LeakyReLU(negative_slope=0.2, inplace)
    (layer-2): Conv1d(500, 700, kernel_size=(3,), stride=(2,))
    (bn-2): BatchNorm1d(700, eps=1e-05, momentum=0.1, affine=True, track_running_stats=True)
    (activation-2): LeakyReLU(negative_slope=0.2, inplace)
    (layer-3): Conv1d(700, 1000, kernel_size=(3,), stride=(2,))
    (bn-3): BatchNorm1d(1000, eps=1e-05, momentum=0.1, affine=True, track_running_stats=True)
    (activation-3): LeakyReLU(negative_slope=0.2, inplace)
  )
  (linear): Linear(in_features=1000, out_features=300, bias=True)
  (decoder): LSTM(600, 300, batch_first=True)
  (linear_dec): Linear(in_features=300, out_features=11004, bias=True)
)
MLP_I(
  (layer1): Linear(in_features=300, out_features=300, bias=True)
  (bn1): BatchNorm1d(300, eps=1e-05, momentum=0.1, affine=True, track_running_stats=True)
  (activation1): ReLU()
  (layer2): Linear(in_features=300, out_features=300, bias=True)
  (bn2): BatchNorm1d(300, eps=1e-05, momentum=0.1, affine=True, track_running_stats=True)
  (activation2): ReLU()
  (layer7): Linear(in_features=300, out_features=100, bias=True)
)
MLPClassifier(
  (layers): Sequential(
    (layer0): Linear(in_features=200, out_features=200, bias=True)
    (bn0): BatchNorm1d(200, eps=1e-05, momentum=0.1, affine=True, track_running_stats=True)
    (activation0): ReLU()
    (layer1): Linear(in_features=200, out_features=150, bias=True)
    (bn1): BatchNorm1d(150, eps=1e-05, momentum=0.1, affine=True, track_running_stats=True)
    (activation1): ReLU()
    (layer2): Linear(in_features=150, out_features=100, bias=True)
    (bn2): BatchNorm1d(100, eps=1e-05, momentum=0.1, affine=True, track_running_stats=True)
    (activation2): ReLU()
  )
  (linear): Linear(in_features=100, out_features=3, bias=True)
  (log_softmax): LogSoftmax()
)
ALPHA = 0.3
PERTURB ON EMBEDDING
--------------------------------
Target  tensor(1)
<sos> a woman in a white shirt playing volleyball .
<sos> people are playing volleyball in beach . <pad> <pad>
<sos> people are pushing in trees . <eos> <eos> <eos>
Old  [0.49004987 0.2084394  0.30151072]
New  [0.6720047  0.12199732 0.20599797]
…
